2022-09-22 15:29:22,589 - train - INFO - GraphSynergy(
  (protein_embedding): Embedding(15970, 64)
  (cell_embedding): Embedding(76, 64)
  (drug_embedding): Embedding(764, 64)
  (aggregation_function): Linear(in_features=128, out_features=64, bias=True)
  (combine_function): Linear(in_features=128, out_features=64, bias=False)
)
Trainable parameters: 1092288
2022-09-22 15:29:22,589 - trainer - WARNING - Warning: There's no GPU available on this machine,training will be performed on CPU.
2022-09-22 15:30:00,176 - trainer - INFO - epoch: 1
2022-09-22 15:30:00,176 - trainer - INFO -     train          : loss           : 0.78	accuracy       : 0.61	precision      : 0.59	recall         : 0.51	roc_auc        : 0.65	pr_auc         : 0.60	f1_score       : 0.54	
2022-09-22 15:30:00,181 - trainer - INFO -     validation     : val_loss       : 0.63	val_accuracy   : 0.68	val_precision  : 0.68	val_recall     : 0.55	val_roc_auc    : 0.74	val_pr_auc     : 0.69	val_f1_score   : 0.61	
2022-09-22 15:30:00,201 - trainer - INFO - Saving current best: model_best.pth ...
2022-09-22 15:30:00,201 - test - INFO - GraphSynergy(
  (protein_embedding): Embedding(15970, 64)
  (cell_embedding): Embedding(76, 64)
  (drug_embedding): Embedding(764, 64)
  (aggregation_function): Linear(in_features=128, out_features=64, bias=True)
  (combine_function): Linear(in_features=128, out_features=64, bias=False)
)
Trainable parameters: 1092288
2022-09-22 15:30:00,202 - test - INFO - Loading checkpoint: saved\models\DrugCombDB\0922_152912\model_best.pth ...
2022-09-22 15:30:05,773 - test - INFO - {'loss': 0.6299744404451614, 'accuracy': 0.6697630877799381, 'precision': 0.6726858837176856, 'recall': 0.5532860164294844, 'roc_auc': 0.732836071955786, 'pr_auc': 0.6951672146161878, 'f1_score': 0.6067052228478073}
